…
, [0], 0, 0, 0, 0, [0], [0]], [0, 0, 0, 0, 0, 0, 0, 0, 0, 0, 0, 0, 0, 0, 0, 0, 0, 0, [0]], [0, 0, 0, 0, 0, 0, 0, 0, 0, 0, 0, 0, 0, 0, 0, 0, 0, 0, 0], [0, 0, 0, 0, 0, 0, 0, 0, 0, 0, 0, 0, 0, 0, 0, 0, 0, 0, [0]], [0, 0, 0, 0, 0, 0, 0, 0, 0, 0, 0, 0, 0, 0, 0, 0, 0], [0, 0, 0, 0, 0, 0, 0, 0, 0, 0, 0, 0, 0, 0, 0, 0, 0], [0, 0, 0, 0, 0, 0, 0, 0, 0, 0, 0, 0, 0, 0, 0, 0, 0], [0, 0, 0, 0, 0, 0, 0, 0, 0, 0, 0, 0, 0, 0, 0, 0, 0]], [520, 7], []], "num_parameters": []}, {"name": "base_model.0", "id": 2077134946992, "class_name": "ConvEmbeddingInputLayer(\n  (embeddings): ModuleDict(\n    (active_player_t-0): Embedding(2, 32)\n    (active_player_t-1): Embedding(2, 32)\n    (active_player_t-2): Embedding(2, 32)\n    (active_player_t-3): Embedding(2, 32)\n    (inactive_player_t-0): Embedding(2, 32)\n    (inactive_player_t-1): Embedding(2, 32)\n    (inactive_player_t-2): Embedding(2, 32)\n    (inactive_player_t-3): Embedding(2, 32)\n    (p1_active): Embedding(2, 32)\n  )\n  (continuous_space_embedding): Sequential(\n    (0): Conv2d(1, 128, kernel_size=(1, 1), stride=(1, 1))\n    (1): LeakyReLU(negative_slope=0.01)\n  )\n  (embedding_merger): Sequential(\n    (0): Conv2d(288, 128, kernel_size=(1, 1), stride=(1, 1))\n    (1): LeakyReLU(negative_slope=0.01)\n  )\n  (merger): Sequential(\n    (0): Conv2d(256, 128, kernel_size=(1, 1), stride=(1, 1))\n  )\n)", "parameters": [["embeddings.active_player_t-0.weight", [2, 32]], ["embeddings.active_player_t-1.weight", [2, 32]], ["embeddings.active_player_t-2.weight", [2, 32]], ["embeddings.active_player_t-3.weight", [2, 32]], ["embeddings.inactive_player_t-0.weight", [2, 32]], ["embeddings.inactive_player_t-1.weight", [2, 32]], ["embeddings.inactive_player_t-2.weight", [2, 32]], ["embeddings.inactive_player_t-3.weight", [2, 32]], ["embeddings.p1_active.weight", [2, 32]], ["continuous_space_embedding.0.weight", [128, 1, 1, 1]], ["continuous_space_embedding.0.bias", [128]], ["embedding_merger.0.weight", [128, 288, 1, 1]], ["embedding_merger.0.bias", [128]], ["merger.0.weight", [128, 256, 1, 1]], ["merger.0.bias", [128]]], "output_shape": [[520, 128, 6, 7]], "num_parameters": [64, 64, 64, 64, 64, 64, 64, 64, 64, 128, 128, 36864, 128, 32768, 128]}, {"name": "base_model.1", "id": 2077073089440, "class_name": "ResidualBlock(\n  (conv1): Conv2d(128, 128, kernel_size=(3, 3), stride=(1, 1), padding=(1, 1))\n  (norm1): Identity()\n  (act1): LeakyReLU(negative_slope=0.01)\n  (conv2): Conv2d(128, 128, kernel_size=(3, 3), stride=(1, 1), padding=(1, 1))\n  (norm2): Identity()\n  (final_act): LeakyReLU(negative_slope=0.01)\n  (change_n_channels): Identity()\n  (squeeze_excitation): SELayer(\n    (fc): Sequential(\n      (0): Linear(in_features=128, out_features=8, bias=False)\n      (1): ReLU(inplace=True)\n      (2): Linear(in_features=8, out_features=128, bias=False)\n      (3): Sigmoid()\n    )\n  )\n)", "parameters": [["conv1.weight", [128, 128, 3, 3]], ["conv1.bias", [128]], ["conv2.weight", [128, 128, 3, 3]], ["conv2.bias", [128]], ["squeeze_excitation.fc.0.weight", [8, 128]], ["squeeze_excitation.fc.2.weight", [128, 8]]], "output_shape": [[520, 128, 6, 7]], "num_parameters": [147456, 128, 147456, 128, 1024, 1024]}, {"name": "base_model.2", "id": 2077134827328, "class_name": "ResidualBlock(\n  (conv1): Conv2d(128, 128, kernel_size=(3, 3), stride=(1, 1), padding=(1, 1))\n  (norm1): Identity()\n  (act1): LeakyReLU(negative_slope=0.01)\n  (conv2): Conv2d(128, 128, kernel_size=(3, 3), stride=(1, 1), padding=(1, 1))\n  (norm2): Identity()\n  (final_act): LeakyReLU(negative_slope=0.01)\n  (change_n_channels): Identity()\n  (squeeze_excitation): SELayer(\n    (fc): Sequential(\n      (0): Linear(in_features=128, out_features=8, bias=False)\n      (1): ReLU(inplace=True)\n      (2): Linear(in_features=8, out_features=128, bias=False)\n      (3): Sigmoid()\n    )\n  )\n)", "parameters": [["conv1.weight", [128, 128, 3, 3]], ["conv1.bias", [128]], ["conv2.weight", [128, 128, 3, 3]], ["conv2.bias", [128]], ["squeeze_excitation.fc.0.weight", [8, 128]], ["squeeze_excitation.fc.2.weight", [128, 8]]], "output_shape": [[520, 128, 6, 7]], "num_parameters": [147456, 128, 147456, 128, 1024, 1024]}, {"name": "base_model.3", "id": 2077134949824, "class_name": "ResidualBlock(\n  (conv1): Conv2d(128, 128, kernel_size=(3, 3), stride=(1, 1), padding=(1, 1))\n  (norm1): Identity()\n  (act1): LeakyReLU(negative_slope=0.01)\n  (conv2): Conv2d(128, 128, kernel_size=(3, 3), stride=(1, 1), padding=(1, 1))\n  (norm2): Identity()\n  (final_act): LeakyReLU(negative_slope=0.01)\n  (change_n_channels): Identity()\n  (squeeze_excitation): SELayer(\n    (fc): Sequential(\n      (0): Linear(in_features=128, out_features=8, bias=False)\n      (1): ReLU(inplace=True)\n      (2): Linear(in_features=8, out_features=128, bias=False)\n      (3): Sigmoid()\n    )\n  )\n)", "parameters": [["conv1.weight", [128, 128, 3, 3]], ["conv1.bias", [128]], ["conv2.weight", [128, 128, 3, 3]], ["conv2.bias", [128]], ["squeeze_excitation.fc.0.weight", [8, 128]], ["squeeze_excitation.fc.2.weight", [128, 8]]], "output_shape": [[520, 128, 6, 7]], "num_parameters": [147456, 128, 147456, 128, 1024, 1024]}, {"name": "base_model.4", "id": 2077134947952, "class_name": "ResidualBlock(\n  (conv1): Conv2d(128, 128, kernel_size=(3, 3), stride=(1, 1), padding=(1, 1))\n  (norm1): Identity()\n  (act1): LeakyReLU(negative_slope=0.01)\n  (conv2): Conv2d(128, 128, kernel_size=(3, 3), stride=(1, 1), padding=(1, 1))\n  (norm2): Identity()\n  (final_act): LeakyReLU(negative_slope=0.01)\n  (change_n_channels): Identity()\n  (squeeze_excitation): SELayer(\n    (fc): Sequential(\n      (0): Linear(in_features=128, out_features=8, bias=False)\n      (1): ReLU(inplace=True)\n      (2): Linear(in_features=8, out_features=128, bias=False)\n      (3): Sigmoid()\n    )\n  )\n)", "parameters": [["conv1.weight", [128, 128, 3, 3]], ["conv1.bias", [128]], ["conv2.weight", [128, 128, 3, 3]], ["conv2.bias", [128]], ["squeeze_excitation.fc.0.weight", [8, 128]], ["squeeze_excitation.fc.2.weight", [128, 8]]], "output_shape": [[520, 128, 6, 7]], "num_parameters": [147456, 128, 147456, 128, 1024, 1024]}, {"name": "base_model.5", "id": 2077134893504, "class_name": "ResidualBlock(\n  (conv1): Conv2d(128, 128, kernel_size=(3, 3), stride=(1, 1), padding=(1, 1))\n  (norm1): Identity()\n  (act1): LeakyReLU(negative_slope=0.01)\n  (conv2): Conv2d(128, 128, kernel_size=(3, 3), stride=(1, 1), padding=(1, 1))\n  (norm2): Identity()\n  (final_act): LeakyReLU(negative_slope=0.01)\n  (change_n_channels): Identity()\n  (squeeze_excitation): SELayer(\n    (fc): Sequential(\n      (0): Linear(in_features=128, out_features=8, bias=False)\n      (1): ReLU(inplace=True)\n      (2): Linear(in_features=8, out_features=128, bias=False)\n      (3): Sigmoid()\n    )\n  )\n)", "parameters": [["conv1.weight", [128, 128, 3, 3]], ["conv1.bias", [128]], ["conv2.weight", [128, 128, 3, 3]], ["conv2.bias", [128]], ["squeeze_excitation.fc.0.weight", [8, 128]], ["squeeze_excitation.fc.2.weight", [128, 8]]], "output_shape": [[520, 128, 6, 7]], "num_parameters": [147456, 128, 147456, 128, 1024, 1024]}, {"name": "base_model.6", "id": 2077134894944, "class_name": "ResidualBlock(\n  (conv1): Conv2d(128, 128, kernel_size=(3, 3), stride=(1, 1), padding=(1, 1))\n  (norm1): Identity()\n  (act1): LeakyReLU(negative_slope=0.01)\n  (conv2): Conv2d(128, 128, kernel_size=(3, 3), stride=(1, 1), padding=(1, 1))\n  (norm2): Identity()\n  (final_act): LeakyReLU(negative_slope=0.01)\n  (change_n_channels): Identity()\n  (squeeze_excitation): SELayer(\n    (fc): Sequential(\n      (0): Linear(in_features=128, out_features=8, bias=False)\n      (1): ReLU(inplace=True)\n      (2): Linear(in_features=8, out_features=128, bias=False)\n      (3): Sigmoid()\n    )\n  )\n)", "parameters": [["conv1.weight", [128, 128, 3, 3]], ["conv1.bias", [128]], ["conv2.weight", [128, 128, 3, 3]], ["conv2.bias", [128]], ["squeeze_excitation.fc.0.weight", [8, 128]], ["squeeze_excitation.fc.2.weight", [128, 8]]], "output_shape": [[520, 128, 6, 7]], "num_parameters": [147456, 128, 147456, 128, 1024, 1024]}, {"name": "base_model.7", "id": 2077134896144, "class_name": "ResidualBlock(\n  (conv1): Conv2d(128, 128, kernel_size=(3, 3), stride=(1, 1), padding=(1, 1))\n  (norm1): Identity()\n  (act1): LeakyReLU(negative_slope=0.01)\n  (conv2): Conv2d(128, 128, kernel_size=(3, 3), stride=(1, 1), padding=(1, 1))\n  (norm2): Identity()\n  (final_act): LeakyReLU(negative_slope=0.01)\n  (change_n_channels): Identity()\n  (squeeze_excitation): SELayer(\n    (fc): Sequential(\n      (0): Linear(in_features=128, out_features=8, bias=False)\n      (1): ReLU(inplace=True)\n      (2): Linear(in_features=8, out_features=128, bias=False)\n      (3): Sigmoid()\n    )\n  )\n)", "parameters": [["conv1.weight", [128, 128, 3, 3]], ["conv1.bias", [128]], ["conv2.weight", [128, 128, 3, 3]], ["conv2.bias", [128]], ["squeeze_excitation.fc.0.weight", [8, 128]], ["squeeze_excitation.fc.2.weight", [128, 8]]], "output_shape": [[520, 128, 6, 7]], "num_parameters": [147456, 128, 147456, 128, 1024, 1024]}, {"name": "base_model.8", "id": 2077072978080, "class_name": "ResidualBlock(\n  (conv1): Conv2d(128, 128, kernel_size=(3, 3), stride=(1, 1), padding=(1, 1))\n  (norm1): Identity()\n  (act1): LeakyReLU(negative_slope=0.01)\n  (conv2): Conv2d(128, 128, kernel_size=(3, 3), stride=(1, 1), padding=(1, 1))\n  (norm2): Identity()\n  (final_act): LeakyReLU(negative_slope=0.01)\n  (change_n_channels): Identity()\n  (squeeze_excitation): SELayer(\n    (fc): Sequential(\n      (0): Linear(in_features=128, out_features=8, bias=False)\n      (1): ReLU(inplace=True)\n      (2): Linear(in_features=8, out_features=128, bias=False)\n      (3): Sigmoid()\n    )\n  )\n)", "parameters": [["conv1.weight", [128, 128, 3, 3]], ["conv1.bias", [128]], ["conv2.weight", [128, 128, 3, 3]], ["conv2.bias", [128]], ["squeeze_excitation.fc.0.weight", [8, 128]], ["squeeze_excitation.fc.2.weight", [128, 8]]], "output_shape": [[520, 128, 6, 7]], "num_parameters": [147456, 128, 147456, 128, 1024, 1024]}, {"name": "actor_base.0", "id": 2077135060320, "class_name": "Conv2d(128, 128, kernel_size=(1, 1), stride=(1, 1))", "parameters": [["bias", [128]], ["weight_orig", [128, 128, 1, 1]]], "output_shape": [[520, 128, 6, 7]], "num_parameters": [128, 16384]}, {"name": "actor_base.1", "id": 2077135057968, "class_name": "ReLU()", "parameters": [], "output_shape": [[520, 128, 6, 7]], "num_parameters": []}, {"name": "actor", "id": 2077135057296, "class_name": "DictActor(\n  (actor): Conv2d(128, 7, kernel_size=(6, 7), stride=(1, 1))\n)", "parameters": [["actor.weight", [7, 128, 6, 7]], ["actor.bias", [7]]], "output_shape": [[520, 7], [520, 1]], "num_parameters": [37632, 7]}, {"name": "baseline_base.0", "id": 2077135060416, "class_name": "Conv2d(128, 128, kernel_size=(1, 1), stride=(1, 1))", "parameters": [["bias", [128]], ["weight_orig", [128, 128, 1, 1]]], "output_shape": [[520, 128, 6, 7]], "num_parameters": [128, 16384]}, {"name": "baseline_base.1", "id": 2077135058592, "class_name": "ReLU()", "parameters": [], "output_shape": [[520, 128, 6, 7]], "num_parameters": []}, {"name": "baseline", "id": 2077135058304, "class_name": "BaselineLayer(\n  (linear): Linear(in_features=128, out_features=1, bias=True)\n  (activation): Sigmoid()\n)", "parameters": [["linear.weight", [1, 128]], ["linear.bias", [1]]], "output_shape": [[520, 1]], "num_parameters": [128, 1]}], "edges": []}